…
    - Standard LiteFormer blocks with depthwise convolution
    - Patch embedding: 4x4 patches, stride 4
    - 7 LiteFormer blocks
    - Sequence pooling + MLP head
================================================================================

────────────────────────────────────────────────────────────────────────────────
  DETAILED ARCHITECTURE
────────────────────────────────────────────────────────────────────────────────
  Install torchsummary or torchinfo for detailed architecture:
  pip install torchsummary  OR  pip install torchinfo

  Basic Model Structure:
LiteFormer2D_Base(
  (patch_embed): PatchEmbedding2D(
    (proj): Conv2d(1, 64, kernel_size=(4, 4), stride=(4, 4), bias=False)
  )
  (blocks): ModuleList(
    (0-6): 7 x LiteFormerBlock2D(
      (dconv): Conv2d(64, 64, kernel_size=(7, 7), stride=(1, 1), padding=(3, 3), groups=64, bias=False)
      (norm1): BatchNorm2d(64, eps=1e-05, momentum=0.1, affine=True, track_running_stats=True)
      (norm2): LayerNorm((64,), eps=1e-05, elementwise_affine=True)
      (ffn): Sequential(
        (0): Linear(in_features=64, out_features=256, bias=True)
        (1): ReLU()
        (2): Linear(in_features=256, out_features=64, bias=True)
        (3): Dropout(p=0.2, inplace=False)
      )
    )
  )
  (sequence_pool): SequencePooling2D(
    (pool_weights): Linear(in_features=64, out_features=1, bias=True)
  )
  (mlp_head): MLPHead(
    (head): Linear(in_features=64, out_features=10, bias=True)
  )
)
────────────────────────────────────────────────────────────────────────────────

================================================================================


[2/5] Creating Variant B (CWCL)...

================================================================================
  MODEL: LiteFormer2D_CWCL
  VARIANT: B (dual-branch)
================================================================================
…
    - Attention consistency loss (fault-specific + temporal + cross-scale)
    - Global pooling + classification head
================================================================================

────────────────────────────────────────────────────────────────────────────────
  DETAILED ARCHITECTURE
────────────────────────────────────────────────────────────────────────────────
  Install torchsummary or torchinfo for detailed architecture:
  pip install torchsummary  OR  pip install torchinfo

  Basic Model Structure:
CWTLiteFormerFusion(
  (cnn_branch): CNNBranch(
    (stages): ModuleList(
      (0): Sequential(
        (0): Conv2d(1, 64, kernel_size=(3, 3), stride=(1, 1), padding=(1, 1))
        (1): Conv2d(64, 64, kernel_size=(1, 1), stride=(1, 1))
        (2): BatchNorm2d(64, eps=1e-05, momentum=0.1, affine=True, track_running_stats=True)
        (3): ReLU(inplace=True)
        (4): Dropout2d(p=0.1, inplace=False)
      )
      (1): Sequential(
        (0): Conv2d(64, 64, kernel_size=(3, 3), stride=(1, 1), padding=(2, 2), dilation=(2, 2), groups=64)
        (1): Conv2d(64, 64, kernel_size=(1, 1), stride=(1, 1))
        (2): BatchNorm2d(64, eps=1e-05, momentum=0.1, affine=True, track_running_stats=True)
        (3): ReLU(inplace=True)
        (4): Dropout2d(p=0.1, inplace=False)
      )
      (2): Sequential(
        (0): Conv2d(64, 64, kernel_size=(3, 3), stride=(1, 1), padding=(4, 4), dilation=(4, 4), groups=64)
        (1): Conv2d(64, 64, kernel_size=(1, 1), stride=(1, 1))
        (2): BatchNorm2d(64, eps=1e-05, momentum=0.1, affine=True, track_running_stats=True)
        (3): ReLU(inplace=True)
        (4): Dropout2d(p=0.1, inplace=False)
      )
    )
    (feature_proj): Conv2d(64, 64, kernel_size=(1, 1), stride=(1, 1))
  )
  (transformer_branch): TransformerBranch(
    (patch_embed): Conv2d(1, 64, kernel_size=(4, 4), stride=(4, 4), bias=False)
    (blocks): ModuleList(
      (0-6): 7 x LiteFormerBlock(
        (dconv): Conv2d(64, 64, kernel_size=(7, 7), stride=(1, 1), padding=(3, 3), groups=64, bias=False)
        (norm1): BatchNorm2d(64, eps=1e-05, momentum=0.1, affine=True, track_running_stats=True)
        (norm2): LayerNorm((64,), eps=1e-05, elementwise_affine=True)
        (ffn): Sequential(
          (0): Linear(in_features=64, out_features=256, bias=True)
          (1): ReLU()
          (2): Dropout(p=0.2, inplace=False)
          (3): Linear(in_features=256, out_features=64, bias=True)
          (4): Dropout(p=0.2, inplace=False)
        )
      )
    )
  )
  (fusion_module): CrossModalFusion(
    (q_proj): Conv2d(64, 32, kernel_size=(1, 1), stride=(1, 1))
    (kv_proj): Conv2d(64, 64, kernel_size=(1, 1), stride=(1, 1))
    (out_proj): Conv2d(32, 64, kernel_size=(1, 1), stride=(1, 1))
  )
  (global_pool): AdaptiveAvgPool2d(output_size=1)
  (classifier): Sequential(
    (0): Flatten(start_dim=1, end_dim=-1)
    (1): Linear(in_features=64, out_features=32, bias=True)
    (2): ReLU()
    (3): Dropout(p=0.2, inplace=False)
    (4): Linear(in_features=32, out_features=10, bias=True)
  )
  (attention_loss): AttentionConsistencyLoss()
)
────────────────────────────────────────────────────────────────────────────────

================================================================================


========================================================================================================================
  MODEL COMPARISON TABLE
…
